…
Semente do modelo:		True
Tempo total de processamento:	5:49:20.414645 h
Tempo médio de processamento:	1:09:52.082929 h

*********************** Métricas ***********************

Acurácia média:			0.9193333333333333
AUC média:			0.9193851567316411

Matriz de confusão somada:

[[48712  3568]
 [ 4902 47818]]

****************** Arquitetura gerada ******************

Model: "sequential_5"
_________________________________________________________________
Layer (type)                 Output Shape              Param #   
=================================================================
conv2d_9 (Conv2D)            (None, 52, 113, 6)        168       
_________________________________________________________________
average_pooling2d_9 (Average (None, 26, 56, 6)         0         
_________________________________________________________________
conv2d_10 (Conv2D)           (None, 24, 54, 16)        880       
_________________________________________________________________
average_pooling2d_10 (Averag (None, 12, 27, 16)        0         
_________________________________________________________________
flatten_5 (Flatten)          (None, 5184)              0         
_________________________________________________________________
dense_13 (Dense)             (None, 120)               622200    
_________________________________________________________________
dense_14 (Dense)             (None, 84)                10164     
_________________________________________________________________
dense_15 (Dense)             (None, 2)                 170       
=================================================================
Total params: 633,582
Trainable params: 633,582
Non-trainable params: 0
_________________________________________________________________
